src/models/model_keras.tflite (tflite, 206408 bytes, 8 tensors)

sequential/dense_1/BiasAdd/ReadVariableOp f4 [128]
00000000: 225a 13bd e629 0dbd 5401 82bd 6975 583d
00000010: 7a3f a63b 4da8 b2bc d305 37bd 4aa0 b03c
00000020: b639 283b 2d87 47bc 759a 3e3a 4959 97bd
00000030: c986 03bb 7495 5fbd 277e 393d b835 87bd
00000040: 8e33 22bc 1f18 cc3c d30d 47bc 7a79 583d
00000050: df67 46bd 607c 963d 5857 a9bd d1d1 bbbd
00000060: 4186 15be a0a4 84bd 3126 be3c 4e76 4fbc
00000070: 8dff 223e c999 223d 58d9 babd ec38 58bd
00000080: 7e39 043e 64f5 48bd 2785 61bd 9ceb c9bd
00000090: b2c3 2fbd 0db5 f6bd 45fe 40bc 99d0 0cbe
000000a0: 6627 84bd 569e a4bd 1164 72bd d4d3 abbc
000000b0: d164 b0bd 5a6b 03bd 37a2 64bc 6dfa 8e3c
000000c0: 8727 00bd 5d2f 433d 79d8 a43c 532b 0f3b
000000d0: 5d37 523e 8517 2fbe ef65 6ebd d597 a7bd
000000e0: 6d04 2d3e 6065 08bd 0417 6c3d 3cf4 09bd
000000f0: 14c9 513e f151 2c3e 7df0 8cbd 259d a5bd
00000100: 73bf e1bd 3f76 af3d 1c1e 47bd 5fe6 cabc
00000110: ace8 66bd a980 59bd f780 7a3d 4715 4e3d
00000120: cbe2 f83d b09f 5cbd 7807 9bbd 235f 303e
00000130: 3937 b53c 674f b03d b142 eebd 742d 2fbd
00000140: a81d dc3d 7ba2 74bd 682d adbd 36eb 3d3d
00000150: 208d 03bd 708e 353e 0bb8 243d d717 98bd
00000160: 4f4a 1cbe a7c1 92bc 7ec0 3bbe 6e57 9cbd
00000170: 29e7 d03d 1af0 e7bb cff5 3d3d 5056 0cbd
00000180: c89b 5abe 3436 cbbd 68f3 ecbd 349d 4ebc
00000190: fe3b d3bb 8554 1fbe a924 3ebc 08e4 6fbd
000001a0: 6a38 fdbd 0eaf 303e 6244 9cbd de17 033e
000001b0: ee38 21bd 8848 b23d 70ff 55bd 3f5d 693d
000001c0: 322f 633e a605 48bd 34fa 7cbd 5073 63bd
000001d0: 6018 423c 2378 d6bc 408a 38be 6472 2bbd
000001e0: 847d ab3d ef22 5ebd 0b0f 96bd 8ae7 7d3b
000001f0: 3425 aa3c 2c2e bbbd dd38 02bd 6de4 4bbd
-0.03597463 -0.034463786 -0.063479096 0.052846346 0.005073485 -0.021808768 -0.04468329 0.021560807
0.0025669164 -0.0121782245 0.00072709407 -0.07390077 -0.0020069352 -0.05458589 0.045286324 -0.06602043
-0.009899987 0.024913846 -0.012149292 0.052850224 -0.048438903 0.073479414 -0.082686126 -0.09170879
-0.14601995 -0.06476712 0.02321157 -0.012662483 0.15917797 0.039697442 -0.09123486 -0.05278866
0.12912557 -0.049062148 -0.055058625 -0.09859392 -0.04291124 -0.120462514 -0.011779373 -0.13751449
-0.06452827 -0.08038013 -0.059177462 -0.020975031 -0.08612979 -0.0320848 -0.013954691 0.017453397
-0.031287696 0.04765259 0.020122753 0.0021845892 0.20528932 -0.17098816 -0.05820268 -0.081832565
0.1689622 -0.033299804 0.057639137 -0.033680186 0.20486861 0.16828133 -0.06881807 -0.080866136
-0.11022844 0.085674755 -0.0486127 -0.024768053 -0.056374237 -0.053101216 0.061158147 0.05031326
0.12152632 -0.053863227 -0.07569784 0.17223792 0.022121059 0.08608895 -0.11633814 -0.042767957
0.10747844 -0.059725266 -0.08455926 0.046366893 -0.03211701 0.17730117 0.04021458 -0.07426422
-0.15262721 -0.017914606 -0.18335149 -0.076338634 0.1020034 -0.007078183 0.046377 -0.034262
-0.21348488 -0.09922448 -0.115698636 -0.012610722 -0.0064463606 -0.15559585 -0.01160542 -0.058567077
-0.12364276 0.17254278 -0.076302305 0.12802073 -0.039360933 0.087052405 -0.052245557 0.056973692
0.22185972 -0.04883351 -0.06176205 -0.055529892 0.011846632 -0.026180333 -0.18021488 -0.04185714
0.083735496 -0.054232534 -0.07327088 0.0038742744 0.020769693 -0.09139666 -0.03179251 -0.04977839

sequential/dense_2/BiasAdd/ReadVariableOp f4 [64]
00000000: da69 79bd 4b1e be3d dc9b 093d 2ba4 a1bd
00000010: d1ec fa3d 15a3 94bd 140a 1c3c 5548 98bd
00000020: 2ae4 3cbd f322 08bd fed0 933d 8e2a 1ebe
00000030: ee4a b3bd f353 fe3c 7ca0 65bd 1b7c 0bbe
00000040: 238f e1bd d9ea d0bd 2151 e0bb 1102 14be
00000050: 4e58 ad3b 5abe b33b 748a 93bd 72a5 6ebc
00000060: 4cbb f2bd 24bc ca3d f467 c73d 080f d6bc
00000070: 2440 76bd aa07 cbbb 8649 ab3c b306 5c3d
00000080: fa87 cb3c dc2a 08be 0b36 8a3d e1be 063b
00000090: 364a 6cbd 2ed2 01be 4e53 e5bd 7eaa 1dbe
000000a0: 7fc9 7a3c 8c94 12bd b05e a83d bb0c 0dbe
000000b0: 8b53 173e f9ef 82bd 3534 ecbc 340b c8bc
000000c0: 7a6f c5bd 5e2e fbbd 992b 95bb faf9 b9bd
000000d0: 3529 3fbe c4aa 163c dedb c7bd ede0 0ebe
000000e0: 9b2d 2b3d bd43 f8ba f001 413d 3d2e f13d
000000f0: e473 a23c 236d 29be 99e3 d5bd 83da edbb
-0.060891964 0.09283122 0.033595905 -0.07892641 0.122522004 -0.07257668 0.009523887 -0.07435671
-0.04611603 -0.033236455 0.072175965 -0.15445921 -0.08754526 0.03104589 -0.056061253 -0.13621561
-0.11013629 -0.10201044 -0.006845609 -0.14453913 0.0052900678 0.005485338 -0.07204142 -0.014565812
-0.1185213 0.09899166 0.09736624 -0.026130214 -0.060119763 -0.006195982 0.020909082 0.053717326
0.024845112 -0.132976 0.06748589 0.002056055 -0.05768796 -0.12677833 -0.1119753 -0.15397069
0.0153068295 -0.035786197 0.08221185 -0.13774388 0.14777963 -0.063934274 -0.028833488 -0.024419405
-0.09640403 -0.12264703 -0.0045523164 -0.09080882 -0.18668063 0.009195987 -0.09758733 -0.1395299
0.04179154 -0.0018941086 0.04712099 0.117763974 0.019830652 -0.16545539 -0.104438014 -0.0072587146

sequential/dense_3/BiasAdd/ReadVariableOp f4 [100]
00000000: a3a8 7e39 7847 ab3d 132f 09be bd6e 06be
00000010: 6275 d2bd 2a9d 063c 24fb b83b cbf0 a53c
00000020: 9efd ccbc 2292 e4bd c159 6d3d 2edd b8bc
00000030: d684 2b3b 0670 54bd 3e8d 203d c7c2 273d
00000040: cc70 eebb 553f 943d f833 b6bc 611a fabd
00000050: 1d46 71bd bc93 01bc c7c7 aa3d c16e 38bd
00000060: b023 eabd efd1 6ebd 889d d8bc b39a 6ebd
00000070: 3acd 30be d652 333e 552b efbd 6d0d 9fbd
00000080: e63b 85bd f816 a73d 94db ed3d a747 6bbe
00000090: 6302 513e 9a2e ab3d 1a0b e2bc c815 7ebe
000000a0: 6089 05be 59b9 3e3c d26d 6bbd 9de2 b93d
000000b0: 6203 663c 1e7b bfbc 7e50 573d d458 dcbc
000000c0: 098f d0bc 08da 163e b133 f5bb 61ba 273d
000000d0: 92be acbd eea3 99be 869b 0abd ee67 333e
000000e0: 1f88 9b3e 1fb5 3bbe 8ee4 043d 85b6 92bd
000000f0: 9b8b 163d cbdf 24bd 3570 0bbc f4ac f43d
00000100: fe36 c53d 2c81 903e 4678 393e c146 cd3d
00000110: 5d17 3f3e d372 9ebd 115b ef3c 707c 1f3d
00000120: 2183 98bd fa97 e63d f959 93bd e140 13be
00000130: d452 cb3d 7d87 373e ff7e 30be 3ef1 25bc
00000140: 3f14 acbc 73f4 4b3c abb0 5bbe 76a6 5b3d
00000150: a6e9 47bd c22f 60bc 764c 093e 13b4 e2bd
00000160: 58a9 953d f612 013e 077c 5abd d479 c2bd
00000170: d6d6 483e e21a 43be b9e7 6e3e 46f2 2fbe
00000180: 25ca 09be 6068 7fbd 431c 103e 27fe 59be
0.0002428615 0.08363241 -0.13396864 -0.13128181 -0.10276295 0.008216182 0.0056451727 0.02025642
-0.025023278 -0.11160685 0.057946924 -0.022566404 0.0026171706 -0.051864646 0.0391972 0.04095724
-0.00727663 0.07238642 -0.022241578 -0.122120626 -0.058904756 -0.007908758 0.08338886 -0.0450275
-0.11432588 -0.058305677 -0.026442304 -0.058253 -0.17265788 0.17512068 -0.11678187 -0.07766233
-0.06505565 0.08158678 0.11614147 -0.22976552 0.20411067 0.08358498 -0.027593184 -0.24812996
-0.13040686 0.01164087 -0.05747778 0.09076426 0.014038892 -0.023374137 0.052566998 -0.026897825
-0.02545883 0.1473161 -0.0074829687 0.04094923 -0.08434786 -0.3000788 -0.033839725 0.17520115
0.3037729 -0.18330811 0.03244453 -0.07163719 0.036754232 -0.040252488 -0.008510639 0.11947051
0.096296296 0.2822355 0.18112287 0.10023261 0.18661256 -0.07736745 0.029218229 0.038937032
-0.07446886 0.11259456 -0.07194895 -0.14380218 0.099279076 0.17922778 -0.17235945 -0.010128317
-0.021005748 0.012448418 -0.21454112 0.053625546 -0.04880681 -0.013683261 0.13408074 -0.11069503
0.073076904 0.1260489 -0.053340938 -0.09495893 0.19613203 -0.19053224 0.23330583 -0.17182264
-0.13456018 -0.0623554 0.14073281 -0.21288358

sequential/dense/BiasAdd/ReadVariableOp f4 [256]
00000000: f3ff e4bd 4627 74bd 06f7 1fbe e20c 59be
00000010: 9511 84bd 1619 b9bd 002b 4dbe 3d08 bdbc
00000020: 8761 8dbd 8ead 82be 62ba 04be ff2c bcbd
00000030: de35 33bd 8814 01be ec7e 16be eb31 56bd
00000040: a0d0 2cbe 8f65 96bd 638c e6bd 9775 b83c
00000050: 5b90 aabd b923 86be 5b9c 24bd 0378 26ba
00000060: afd3 dc3c b3e7 23be 8346 4abd 3c95 ff3c
00000070: 51eb 63be bfd7 13bd c604 e0bc 18cb 26bd
00000080: f2cc f83b 1854 55be 7613 1abe 642b d0bd
00000090: 9984 22be 8d47 9cbd 6302 9bbc eec0 66be
000000a0: 017e c2bd d70d e2bd 93e9 25be 1a31 c6bd
000000b0: d8fc 27be 1200 d0bd af0e 00bc 6a8e 16bd
000000c0: d292 f2bd 808a 32be d4a8 1bbe bd85 d7bd
000000d0: aa3d 8ebd f932 0fbd 3aa9 66bd d4dc 2ebe
000000e0: 7aab 2bbd a370 07be 450a 7cbc 2a90 dfbd
000000f0: 6c9a 4bbd 0378 1f3d ea17 4ebe 0a0a 4abe
00000100: 0824 e63c 644e 3cbe b752 d7bd 8a3e f5bd
00000110: 5c44 41bd b7cb b9bd 7314 95bd 076f 743c
00000120: 070c 0dbe 28c9 fcbd 8e51 c7bc 926c 7dbc
00000130: cfc3 4dbe f1d8 48be 70c6 87bd 4191 983c
00000140: cc05 5ebe ba9e 41bd 72ac 3bbd cef3 26be
00000150: 37c0 2bbd 4a2b c1bd b55d bcbd 3d91 06be
00000160: ef05 dabd f36b fc3a e8d5 91bd 9229 e8bc
00000170: b54a 30be f988 09be a44f 6f3c 2a21 9ebd
00000180: 1949 cfbd b0df b9bc c13d f7bc 377d c5bd
00000190: 5502 15be 3e70 a53b 0d9c c0bd 7393 76bd
000001a0: 5abe 0abe c575 06bd 5a06 79be ad65 15be
000001b0: a2e7 a1bd d4a7 15be eb00 e9bc e93e 2dbd
000001c0: af8d 433c 475e 33bd d17d 1ebe 8a88 cd39
000001d0: a7c5 a0bd fba5 52bd 0dab 3dbe c9af 2dbe
000001e0: 6ef2 97bd c373 cfbd d642 49bd dd05 dcbd
000001f0: 4556 debd d433 adbe e8e6 15be 349a acbd
00000200: 3b8e b3bd 6343 9dbd ecc8 19bd 6bc0 16be
00000210: 2f5a b2bc 76fa 2ebd dfdf 0abe 2b37 06be
00000220: 28d2 cebd aca1 99bc 2ecd 643d 8518 a1bd
00000230: e627 3abe a778 0abe 11b1 49be da99 e1bd
00000240: 5c0b e8bb 7740 1dbe e5c2 84bd 736f f7bc
00000250: 3ba8 633d 5daf 88bd cf6f 9fbd 3f1e 94bd
00000260: e029 91be 2edd e0bd 5e0d d1bd de45 2e3a
00000270: b731 4abe 8731 93bd 6d40 bebd 4d7c c8bd
00000280: 6514 68bd 9502 08be a808 93bc d09d 08be
00000290: 746f b1bd 244d 40bd c74a 0abd 52e4 94bd
000002a0: d00f 163c d003 b8bd 7e61 163d 739b 51be
000002b0: 4286 dcbc 0274 e0bc e297 23be 739e 07bd
000002c0: 88c3 04be b7c5 37be a493 2cbe 4f60 5dbd
000002d0: 85f3 02be 5690 dabd 4c84 5dbe 64f3 b8bd
000002e0: ebd6 05be ec82 21be 0232 ffbd aec6 5a3d
000002f0: 8de5 0dbe 90ea 1ebe 4b80 92bd be0d 353b
00000300: a370 1cbe a291 85bd e5f1 abbd 9a59 dcbd
00000310: 40a7 9ebd a68b b6bd 6529 0ebd 1bfc 91ba
00000320: 33e6 913b 1387 97bd 9ee3 00be 19d1 f5bc
00000330: 497c 15be 1f3c 72bd 9c0d b3bd 1f6a eabd
00000340: 3bb9 61be 95cc b1bd b451 42be 3c7b dcbd
00000350: 3486 0fbe a123 0abd 18ba a8bd 2a06 babd
00000360: cb11 07be 4650 47bd 440f 03be c66f 81bd
00000370: 890f abbd b583 febd 3ed9 c6bd 508b 883d
00000380: a63b 90bd 4a7d 16be 57f9 2ebd 2876 a4be
00000390: 2e61 70bb 7e78 7ebe bf55 a7bc c866 55be
000003a0: 0d88 9a3d aa02 dabd ec04 2f3d 916c e4bd
000003b0: c757 1ebd f29e 86be 378e 84bc d72a 6cbe
000003c0: c77c 24be 3185 d3bd 2b3f eebd 65fe d9bd
000003d0: 3287 03be 6838 cbbd d360 91bd 59c5 15be
000003e0: 0dc3 43be e75f 09be 9a11 fc39 ba7f 00be
000003f0: 9ca8 edbd 6785 e0bd 6d44 45bc 9064 55be
-0.11181631 -0.059607767 -0.15621576 -0.2119632 -0.06448666 -0.09037988 -0.20035934 -0.023075217
-0.069033675 -0.25523037 -0.12961724 -0.0918827 -0.043752544 -0.12605488 -0.14696854 -0.0522937
-0.16876459 -0.073435895 -0.112572454 0.022517009 -0.08328315 -0.2619913 -0.040188175 -0.00063502806
0.026956407 -0.16006355 -0.04938365 0.03119909 -0.22257735 -0.036094423 -0.027346026 -0.04072103
0.0075927908 -0.2083286 -0.15046486 -0.10164526 -0.15870894 -0.07630835 -0.018922037 -0.22534534
-0.094966896 -0.11037796 -0.16202383 -0.09677334 -0.16405046 -0.101562634 -0.007816001 -0.03675691
-0.1184441 -0.17435646 -0.15201122 -0.105235554 -0.06945355 -0.03496072 -0.05631373 -0.17076427
-0.04191158 -0.13226561 -0.015383308 -0.10916169 -0.049707815 0.03893281 -0.2012631 -0.19730392
0.028093353 -0.18389279 -0.105138235 -0.11974819 -0.047184333 -0.09072059 -0.07279291 0.014919049
-0.1377412 -0.12343055 -0.02433088 -0.01546778 -0.20094226 -0.19614007 -0.06629646 0.01862395
-0.21681899 -0.047270514 -0.045818754 -0.16303942 -0.041931357 -0.09432085 -0.09197561 -0.13141342
-0.10645663 0.0019258246 -0.071208775 -0.028340135 -0.17215998 -0.13431157 0.01460639 -0.07721169
-0.10121364 -0.02268967 -0.030180814 -0.096430235 -0.14551671 0.0050487807 -0.09404764 -0.060199212
-0.13549176 -0.032827158 -0.24318829 -0.14589567 -0.079055086 -0.14614803 -0.02844282 -0.042296324
0.0119356355 -0.04379108 -0.15477683 0.00039202377 -0.07850199 -0.051427823 -0.18522282 -0.16961588
-0.07419287 -0.10129502 -0.049136005 -0.10743306 -0.10856298 -0.33828604 -0.14638865 -0.084278494
-0.08767363 -0.076788686 -0.03754513 -0.14721839 -0.021771519 -0.042719327 -0.13561963 -0.13106982
-0.10098678 -0.018753849 0.055859737 -0.07866005 -0.18179283 -0.13522588 -0.19696452 -0.11015673
-0.0070814323 -0.15356623 -0.06482486 -0.03020451 0.05558036 -0.06674073 -0.07784998 -0.072323315
-0.2835226 -0.10979687 -0.10207628 0.0006647984 -0.19745527 -0.07187181 -0.09289632 -0.097893335
-0.056660075 -0.13282235 -0.017948464 -0.1334145 -0.08663836 -0.046948567 -0.03376272 -0.07270111
0.009159043 -0.08985102 0.03671407 -0.20469455 -0.026919488 -0.027399067 -0.15975907 -0.033110093
-0.12965214 -0.17946516 -0.16853195 -0.054046925 -0.12788208 -0.10672061 -0.21632499 -0.09030798
-0.13070266 -0.15772599 -0.1246071 0.053412132 -0.13857098 -0.15519166 -0.07153376 0.00276266
-0.15277342 -0.06521918 -0.08395747 -0.10759278 -0.07746744 -0.089133546 -0.034707446 -0.0011137755
0.0044524907 -0.0739881 -0.12586829 -0.030006932 -0.14598192 -0.059139367 -0.0874283 -0.11446022
-0.22043316 -0.08681599 -0.1897648 -0.107656926 -0.14016038 -0.033725385 -0.082386196 -0.09083207
-0.13190381 -0.04866054 -0.12798792 -0.06320147 -0.083525725 -0.12427465 -0.097094044 0.06667197
-0.07042627 -0.14696231 -0.042718258 -0.32121396 -0.0036679017 -0.24850652 -0.02042663 -0.20839989
0.07545481 -0.106450394 0.042729303 -0.1115352 -0.03865793 -0.2629314 -0.016181095 -0.23063217
-0.16063224 -0.103281386 -0.11633142 -0.10644225 -0.12844542 -0.09922868 -0.07098546 -0.14626063
-0.19117375 -0.1341549 0.000480783 -0.12548724 -0.11604425 -0.109629445 -0.01204024 -0.20839143

sequential/dense/MatMul f4 [256, 12]
00000000: 0e1f 3abd 7b40 493e 931c 8abe e64d 26bf
00000010: 19d5 103e 7634 b4bd 5cbf 4ebd d138 bebd
00000020: e2d4 93be 8871 a43e b892 14be ef73 65be
00000030: d5e7 bc3e e705 b2be de20 41be 8406 c63e
00000040: a3dd cabe bf0d 2dbe 1af1 2a3d 482d 943b
00000050: 9b29 49be b5e3 9ebe b00e 6b3d 801d a5bd
00000060: 4a9a cdbe d9de 063e dbb0 b63d cfee 7cbc
00000070: 2691 c33d 2b3f 4d3e c446 673e aef1 f8be
00000080: c22c 49bd 0cef 25bf 0a94 2f3e 69d8 3d3b
00000090: 1c11 e9be cbfb 06be cb55 1fbe ae80 05bd
000000a0: 7f41 573e 5f21 01be 9f90 c5bc d439 15bf
000000b0: 34e3 1b3e bd0e 643e f60b 02bf f8ea 1bbf
000000c0: 83c6 4cbe 4094 37bd ca8f e6bd 7dac 77be
000000d0: 951b d1bd ad3a 8cbd dc64 b9be 6270 e53d
000000e0: 8abc 5a3b 5b0f 763d e103 c9be 110a 4c3e
000000f0: 82a6 183e 8b08 f2bd 9186 57be 1c7f ae3e
00000100: 3c7a d7be 238a a1bd e962 5fbd 83e3 dbbd
00000110: f59a 123e dbc1 513e 23b1 f6be 63cf 99bd
00000120: 739d c23d e923 8e3d 3d9c 903e a873 863e
00000130: 774d e7bd 4e85 a33e a50a e53d 4165 4b3d
00000140: 82c2 2dbf e40f 1abd c448 333d 9acc 1bbe
00000150: 6d93 403d f3f7 823e db5d a43c d4fc 823d
00000160: 059b ac3e 8ba8 f43c ed33 76be e88e 5ebe
00000170: 4495 203e 71dd b23e 4322 edbe af7d 2cbe
00000180: 42ac bebd 908a 2d3c 0d63 103e 1208 32be
00000190: 69a7 bd3d c12d 343e d425 a43d 93c6 86bd
000001a0: 9072 4b3e f2a1 ca3d 16b0 75be 4e41 5a3e
000001b0: d7fb d53e b821 7e3e 7895 0d3e d8b5 2fbe
000001c0: 80cc 99bd 7f06 703e 7980 093e ec89 86be
000001d0: 346c acbe 1b17 01bf 8f7a 2c3d b186 35be
000001e0: 7c30 a5be ff0f 6d3d 2473 b3bd 824a 9a3e
000001f0: 0dff 84be 8fa0 cdbd 2c2a 05bc 6a5a ffbc
00000200: 108d 243d 80f0 a53d ca4d f8bc 02d0 b7be
00000210: a91f c83e bf60 b0be 324b c3bb 8379 46bc
00000220: f2a6 b13e fcbe f1bc cedd 36be fb18 5cbe
00000230: bdf0 7f3e 175a 97be fa0d 27be 960c a23e
00000240: ab27 72be 9304 cc3d 6fbb 67be 9df2 033f
00000250: e703 a7be 647b 69be 4bad b5be a8b5 753e
00000260: cecf 38be 39cf bcbe c7db a63d 56b0 9b3d
00000270: c33f ab3c 8ebb 963e 312c 8abd c4a4 853d
00000280: f43f 873e 2a66 a43d 8c9e 373e 8bac 64be
00000290: 43f5 34bf f072 bcbd 3ce4 69bd 8453 a5bd
000002a0: f5f2 acbd cbe2 e7be 74f3 0e3c 1e4a 61be
000002b0: b9d6 4bbd 25ef 32be 3c47 a23e 36e5 78be
000002c0: c492 81bd e3d7 20be c537 f1be f708 bf3e
000002d0: 17a4 1dbd eed3 e3be dd9c 01be 00d7 5fbe
000002e0: f564 833e 56f4 8dbe 4185 d6bd 7576 113e
000002f0: f5fc 9bbe 9c9f 00bf 2624 24be 134a a63e
00000300: 2126 37bc a071 223f 8816 6bbc 570a 8dbe
00000310: 8c6a 413c 1625 1b3e 31bd 20be dd10 3a3d
00000320: 730f 383d a512 05bf 279f 03be 9452 d33d
00000330: 985c fabe 580b e03c c118 8e3e 7d05 8b3e
00000340: 2e20 85bd 23b4 163e 0084 d4be 8ed5 223e
00000350: 5947 233e 33a2 aebe c6b0 003e b255 aabd
00000360: edb6 bf3e e0e7 06be dae2 883e bdde c1bb
00000370: 4fda 35be d2c2 923d 74aa 5f3e 0bbf abbe
00000380: c350 9abe 1878 53be b4ac d6be 72f3 883e
00000390: f14f ac3e 6a8d 363e 9ac2 2c3e d9a8 7cbe
000003a0: 70b6 743e 9cfe 073e d02a c13c 0730 4abe
000003b0: 0ee5 973e d02e 083e 2d1b 81be f755 0b3d
000003c0: ece1 613e db9c 5d3e 698a a1bc 14f3 1d3e
000003d0: c145 a8be 2529 fabd 8b4d 463e 985c f1bc
000003e0: 31d7 15be 12a9 913d d298 8fbe bd65 6fbe
000003f0: a831 88be f60e df3e 1ea0 11be f59a 0fbe
-0.045439772 0.19653504 -0.26974925 -0.64962614 0.1414379 -0.08799069 -0.050475463 -0.092881806
-0.28873354 0.32117867 -0.14509094 -0.22407506 0.36895624 -0.34770128 -0.18860194 0.38676846
-0.3962222 -0.16899775 0.04173384 0.0045219995 -0.19644777 -0.31033102 0.057387054 -0.08062267
-0.40156776 0.13170947 0.08920451 -0.015437796 0.09549169 0.20043628 0.22585589 -0.48621887
-0.04911495 -0.6481788 0.17146316 0.0028968102 -0.45520866 -0.13181989 -0.15560071 -0.03259342
0.21021079 -0.12610386 -0.024116812 -0.58291364 0.1522339 0.22271247 -0.507995 -0.6090541
-0.19997601 -0.044819117 -0.11257894 -0.24186893 -0.10210339 -0.06847129 -0.36209762 0.11203076
0.0033376538 0.060073238 -0.39260772 0.19925715 0.14907268 -0.11818036 -0.21047427 0.34081352
-0.42085445 -0.078876756 -0.054537687 -0.10736754 0.14316924 0.20484106 -0.4818202 -0.07510259
0.09502687 0.06940443 0.282442 0.26260114 -0.11294072 0.3193764 0.11183671 0.04965711
-0.6787492 -0.03761281 0.043770567 -0.15214768 0.047015596 0.25579795 0.020064285 0.063958794
0.3371202 0.029865524 -0.24043246 -0.21734202 0.1568194 0.3493457 -0.46315202 -0.1684482
-0.09310199 0.010592118 0.14100285 -0.17385891 0.092604466 0.17595579 0.08015028 -0.06580844
0.19867921 0.0989417 -0.23992953 0.21313974 0.417937 0.2481755 0.13826549 -0.17159212
-0.075097084 0.23439978 0.13427915 -0.262771 -0.33676302 -0.5042588 0.04210907 -0.17727162
-0.32263553 0.057876583 -0.08762196 0.3013497 -0.25975838 -0.1004039 -0.00812773 -0.031171042
0.04017359 0.08102512 -0.03031053 -0.35900885 0.39086655 -0.3444881 -0.0059598917 -0.012113932
0.34697682 -0.029510014 -0.1785805 -0.21493904 0.24994178 -0.2956092 -0.16313925 0.31650227
-0.23647945 0.0996181 -0.22630094 0.51542073 -0.32620165 -0.22800976 -0.35483775 0.23995078
-0.18048021 -0.36876848 0.08147388 0.07601993 0.020904427 0.29439968 -0.0674671 0.06525567
0.2641598 0.08027299 0.17931575 -0.22331445 -0.7068674 -0.0920161 -0.057102427 -0.0807257
-0.08444778 -0.45290217 0.008725036 -0.2200093 -0.049765322 -0.17474039 0.31694973 -0.24306187
-0.063268214 -0.15707354 -0.4711286 0.37311527 -0.038486566 -0.44497627 -0.12657495 -0.2185936
0.25662962 -0.27725476 -0.10474635 0.14205344 -0.30466428 -0.50243545 -0.16029415 0.3247839
-0.011178524 0.6345463 -0.014348634 -0.2754695 0.011805188 0.15150866 -0.15697171 0.04542624
0.04493661 -0.51981574 -0.1285368 0.10318485 -0.48898768 0.02734916 0.2775326 0.27152625
-0.065002784 0.14717154 -0.41506958 0.15901777 0.15945186 -0.34108123 0.12567434 -0.08317126
0.3744425 -0.13174391 0.26735574 -0.005916445 -0.1775906 0.07166065 0.21842366 -0.33544192
-0.3013974 -0.20651281 -0.41928637 0.26748234 0.3365474 0.17827383 0.1687111 -0.24673785
0.2389772 0.1328072 0.023579985 -0.19744883 0.29666942 0.13299108 -0.25216046 0.03401753
0.22058839 0.21641867 -0.01971932 0.15424758 -0.32865718 -0.12214879 0.19365518 -0.029463097
-0.1463287 0.07112326 -0.2804628 -0.23378654 -0.26600385 0.43566102 -0.14221236 -0.14023955

sequential/dense_1/MatMul f4 [128, 256]
00000000: e386 f9bd b490 9cbd 62ed f63d c645 9fbd
00000010: 4e57 243d 9d6d b93e 401c 3c3e 32ab f0bc
00000020: 6892 1a3e 0cfe 72be d219 d0bd 6cba 50bf
00000030: e089 7fbe ea1c 26be 9e35 fd3d f60e 453e
00000040: fa8f b5bc c04d f2bd 6fb6 203e 0f9e ec3a
00000050: 1427 53be 16d2 773e f65e b1be 457a 4bbd
00000060: 1ee7 2cbf cd94 70be 3e59 213e a41b a83e
00000070: 7f31 e43c 602e 55be 2014 db3d 1fab 8bbe
00000080: ba78 c0bc 9c45 d83e 564b aa3d 925d babd
00000090: 61fb d9be ee14 bcbd 8474 493e 3f9a 80be
000000a0: e3e6 44bd a7fe 323e 071b 3e3e 0569 823d
000000b0: 2f43 71bd 7735 8a3c fddc bdbd f394 603e
000000c0: 098c 4fbf b4d8 363e babc 61bf 0012 09be
000000d0: c711 00bf 701c 863c b4e3 1e3e 2ab7 a53d
000000e0: f27f 1dbf f6d7 82be 1535 42bd d355 acbb
000000f0: 2c9f 1fbe c573 e9be f428 e7bc 78a6 90bc
00000100: c523 78be c648 003f 0f4a 643e 49b7 303e
00000110: 933a c13d f3dd 2bbe 33f4 87be 5da0 f7be
00000120: d42f f0be af70 563d 967c 153c c48f 0d3e
00000130: 5fbd b53e adfe 1c3e 78e9 5c3e 1e7b a93c
00000140: 0df1 20be f441 a23e 5e46 833e 0f99 cebe
00000150: a584 393e cff3 0bbe 8f12 09bc bbb6 81bd
00000160: 4c48 e83b 9004 123e fb81 1e3b 12fb 453e
00000170: 5851 8ebe a841 0c3e 65d6 6b3e a530 343e
00000180: 7ddf 09bf 1f26 88bd ace1 f03e 7843 b43d
00000190: d0b1 44be 5593 20be 32fd f6bc db5a e73e
000001a0: ffb8 0cbf 6354 b43b 1f86 b73e a170 bbbe
000001b0: 698b e2bc a8d6 9d3e d8be dcbe cfb3 02be
000001c0: e934 16be a1ef 91bd 4227 53ba 651e e3be
000001d0: 5342 aabd be78 0bbc 0d59 b9be 8c31 69bd
000001e0: 6826 283e 188e 93be 3f3e a1be 9d86 803e
000001f0: 0b4b 54be ea28 b4be f2de 623c c681 e8be
00000200: 4dee ba3e 45e2 74bd 7207 c63e 1d46 a63d
00000210: a3b4 9fbe aa9f 3fbd 3d95 eebe eb40 66be
00000220: 52c5 09bd 17af fa3d 5aa9 2fbe 7db2 e5be
00000230: 2b87 f0be b8cb 163e b3f8 ab3e 15bb 573c
00000240: 7ad2 dabe 6fb1 fe3a 95c1 3b3d 9daf 3cbe
00000250: 5fae 3ebd 6c37 c43e 17d2 cc3d 99a0 0bbf
00000260: bb6f 40bf e16c 343d 3680 8dbd 2101 4abe
00000270: b7f6 2a3e 1256 c73e c6cc e6be f8c6 41bd
00000280: 21d4 e3bd 6ef1 3bbe 7949 92bd 2292 7dbe
00000290: fb42 a0bd 7af9 b9be 826a 243d f50b 9abd
000002a0: d5b5 65be 5beb 463e 294b 45bd 2f83 353e
000002b0: 84ca 4f3d 8a05 83be 5d27 43be c85c b53d
000002c0: 9737 08be 023a 923e 03a5 afbe fd16 12bf
000002d0: 01d3 343e 144d 08bd ac24 a3bd 0a08 95be
000002e0: 1ba2 0bbf f384 60be a038 6f3d 0eaa 2cbe
000002f0: 8f65 acbc e712 6bbe c9d2 4cbc 52e7 113e
00000300: 5b49 0e3e 8206 8a3d 1911 04be 5928 0abd
00000310: 6e37 5abe 19c3 023e 4cc1 863e 62de c33d
00000320: fe83 b4bc 7b20 873d 5113 a83e f964 503f
00000330: 44c3 b9be b045 dcbe ac99 d6bc dc18 c2be
00000340: 0214 91be a173 5dbb 1a1c 0abf da9f aebd
00000350: 4550 a63d e95c 8d3d 8eb4 38be 2261 893e
00000360: 81dd 4b3e d4d4 2f3e 499b 0cbf e610 89be
00000370: 8840 a43e a8ed 673e 0cdf 80be 388f 97be
00000380: a47a fe3e 7932 ad3d c587 4fbd ed0f 18be
00000390: 51ac a23d 0bb3 5e3e ca2d 64be 2100 943c
000003a0: 3a27 62be da44 24bf 4815 b13d bdee 0bbd
000003b0: e353 843e 8e3d 02bf c5f9 a5be 6d0a 1e3e
000003c0: 4384 c93c 8eab a6be af22 a6be 7466 d0bd
000003d0: 2a28 a13e 6b0b 5dbd 1c69 aa3d 542a e4bb
000003e0: 54f1 6e3c 0c29 0ebf 67fe d0be 0e6d 37be
000003f0: 45db 133d 3e44 bc3c 0436 653d 2143 823e
-0.12183931 -0.076447874 0.12056996 -0.0777698 0.040122323 0.3621644 0.18370152 -0.029378507
0.15094912 -0.23729724 -0.10161175 -0.8153446 -0.24954939 -0.16221967 0.12363742 0.19243988
-0.02216338 -0.11831236 0.15694593 0.0018052476 -0.20620376 0.24201235 -0.34642762 -0.049677152
-0.67540157 -0.23494263 0.157567 0.32833588 0.027855633 -0.20818472 0.10697198 -0.27278993
-0.023495067 0.42240608 0.083151504 -0.09099878 -0.425746 -0.091836795 0.19673353 -0.2511768
-0.048071753 0.17479955 0.18564998 0.06367687 -0.058901962 0.016871197 -0.09270666 0.2193182
-0.8107305 0.17856103 -0.881786 -0.13385773 -0.50027126 0.016370982 0.1551655 0.080915764
-0.61523354 -0.2555539 -0.047413904 -0.0052592545 -0.15588063 -0.45596138 -0.02821777 -0.017657503
-0.24232395 0.50111043 0.22293876 0.17257418 0.09435 -0.16783886 -0.26553497 -0.48364535
-0.4691149 0.052353557 0.009123942 0.13824373 0.3549604 0.15331526 0.21573436 0.02068859
-0.15716954 0.31690943 0.25639623 -0.4035115 0.18117006 -0.13667224 -0.008366241 -0.06333681
0.0070886966 0.14259553 0.002418636 0.19334057 -0.27796435 0.13696921 0.23031004 0.17596681
-0.5385664 -0.06647896 0.47047174 0.08801931 -0.19208455 -0.15681203 -0.03015003 0.45186505
-0.5496978 0.0055032237 0.35844514 -0.36609367 -0.027654367 0.30827832 -0.43114352 -0.12763904
-0.14668621 -0.07125784 -0.0008054861 -0.44359127 -0.083134316 -0.008512674 -0.36200753 -0.056932017
0.16420901 -0.28819346 -0.31492803 0.25102702 -0.20731752 -0.35187465 0.0138471 -0.4541151
0.36509934 -0.0597861 0.38677555 0.08118842 -0.31192502 -0.046783127 -0.46598235 -0.22485702
-0.033635445 0.12240427 -0.17154446 -0.44862738 -0.46978125 0.1472615 0.3358818 0.013167162
-0.42738706 0.0019431541 0.04583891 -0.18426366 -0.046553012 0.38323534 0.10001009 -0.5454193
-0.7517049 0.044049148 -0.0690922 -0.19726993 0.16695677 0.38932854 -0.45078105 -0.047308892
-0.11124445 -0.18353817 -0.0714292 -0.24762776 -0.078252755 -0.36323148 0.040140636 -0.07521812
-0.22432645 0.19425718 -0.04816738 0.17725824 0.050730243 -0.25590163 -0.19057985 0.08855587
-0.13302456 0.2855988 -0.3430558 -0.5706633 0.17658617 -0.033276632 -0.07965979 -0.29107696
-0.5454423 -0.21925716 0.05840361 -0.16861746 -0.02104452 -0.2295643 -0.012501427 0.14248398
0.1389517 0.067395225 -0.12897147 -0.033729885 -0.21310207 0.12769736 0.2631935 0.095639005
-0.022035595 0.06597992 0.32827237 0.8140407 -0.36281788 -0.43021917 -0.026196323 -0.3790959
-0.28335577 -0.0033790844 -0.5394913 -0.08526583 0.08120779 0.06902487 -0.18037626 0.2683192
0.19908716 0.17171031 -0.54924446 -0.26770705 0.32080483 0.22649252 -0.2517017 -0.29601455
0.49702942 0.084568925 -0.05066659 -0.14849825 0.07943023 0.21747987 -0.22283092 0.018066468
-0.22085276 -0.6416756 0.08646637 -0.034163225 0.2584525 -0.50875175 -0.32417122 0.15433665
0.0245992 -0.3255276 -0.32448336 -0.101757914 0.31475955 -0.053965967 0.08320829 -0.0069630537
0.014583904 -0.5553138 -0.40819094 -0.17912695 0.036097784 0.02298176 0.055959716 0.2544184

sequential/dense_2/MatMul f4 [64, 128]
00000000: 323b 843e bd0a a83e 6ec6 d1bd aa9f eabe
00000010: c79b 37be 482d e43c b6dd 763d d1e1 b7bd
00000020: d68d 6dbe 7ee2 7a3e 8f18 f3bd 753a efbd
00000030: b3ed 6c3c 048a 0fbc 215f 933e f038 0a3d
00000040: 0f7b 4d3e 8f40 26bf 8a59 55be 59b9 0c3d
00000050: a6f7 0abe 296a 3bbe 5f36 4d3d 309b 36be
00000060: 9dc5 2dbd c0b9 4a3d eaca 84bd a507 9b3e
00000070: f7db 85bc 540c 9abb 8d4f a4be 2f74 923c
00000080: f57a e9be f17c a3be 5829 7d3e a490 a1be
00000090: 1c44 a33b 9a77 8c3e 8c69 97bd a76e f4bd
000000a0: 5e24 7d3c aadc 0a3e abb7 263e b448 eabe
000000b0: 1720 dc3c 09fd 98be cf74 673e 072b 42be
000000c0: 0fc4 923e 7e06 eabd 8dfe 52bc 973f 803e
000000d0: 8b11 023e fb19 bd3e c7b3 3fbe aedb f43d
000000e0: adcb d8be 8540 813e 105a 79bd 26d6 1bbd
000000f0: cdc8 1ebf 93d7 2ebf d5f7 04be c375 94be
00000100: 0ef8 603e c75b 403e 7fcf 1abe 6c4a e6bd
00000110: 1407 b5bc 0133 e93c 139e 27be 778f b4bd
00000120: bc6c 15bd 409c a53d 3b45 8d3e ee8d 9bbe
00000130: 98cd b9be 5f12 963e cbcd 7bbe cf4a 103d
00000140: 8d13 e53e 3661 63bc 5962 14bf a61a afbe
00000150: 5e05 523e 5525 763e 1548 53be 653e 943d
00000160: d78c 393e 9f25 2d3e fc64 393c e744 08be
00000170: a5b8 063d 3709 5a3d c207 963c b7f3 f1be
00000180: 2113 5c3d 8f89 edbd ba1e aebe c631 863d
00000190: 9252 293e fdd3 403e 6c47 023e 9bdd 923d
000001a0: 36e8 3ebf 706b 1f3e 88b3 f8bc 087a 42be
000001b0: 61d8 b63b d072 4abd 318d 583d 7d46 8c3e
000001c0: 310c 923e dd23 9d3d 3a96 54be 8d69 79bd
000001d0: 99af ffbd 06d1 ca3d e75b a13d 245f 7fbd
000001e0: e6c9 673c ee00 4dbe 4a87 28be 30fe 93bd
000001f0: fdff 9abd 189d 11be a97f e13d 9ec8 023d
00000200: 401d 83be 5fc3 913e 5717 60bd 65b4 0e3d
00000210: 3de4 a4be 7a76 8d3d e90e 0e3d eee2 86be
00000220: f57c 43be 078a f9be ecef aabd 1805 a23d
00000230: ddc5 8d3e e4bf ebbd a330 87be 8df8 7abd
00000240: 82e1 22bf b4b9 a43e 642c 573e 0a71 123e
00000250: ad5b 6ebd ba94 6ebf 9c53 02be 2bc1 633d
00000260: 2484 76be 69af b6bd 7214 00be c36e 103d
00000270: 7b19 083e 1f2f 133e bf65 093d e760 9c3d
00000280: 10b4 3dbe 82b1 9a3d adba c43d 7a83 93be
00000290: 41d5 46be eac6 c53c a3f7 2bbe 1730 15be
000002a0: c553 3cbe 67f8 07be 5c58 4bbd 6945 dbbe
000002b0: edcb 1cbe dc82 8abd beb3 40be bf02 f13d
000002c0: 3956 cf3d 79c9 d7bc db8c cfbe e30b ae3e
000002d0: a96c 6ebd 0b80 22be 125d b83c e729 9c3d
000002e0: 5800 89bd d761 c6be 8e35 923c 942a 0dbe
000002f0: a72e 763e cf2e 153e a569 a7bd aabc a7bd
00000300: 0512 febe 467e 933d be79 7dbc bc3a fa3c
00000310: 3187 f63d 8a85 30be 2f57 19bf 9b75 43bd
00000320: 276c 473e 749f 01be 20d1 36be 24ed d8be
00000330: e44a 113e b83f 923d 17bf 26bc 435c aa3c
00000340: 28e6 1f3b 356f 413d 2917 3dbe d2f4 ca3e
00000350: 1a54 783d c654 753e ea6c 1c3e aaed 203e
00000360: c78b 973d 9324 64be 294f 3fbf 4948 003d
00000370: c1f8 38bd 8b1b 633e 8289 303d f696 473e
00000380: c2df 86be c2e5 733e 539f f23d b698 24be
00000390: 8f01 8abd 8bcf 9d3e 6dd5 9a3e 50e1 6bbd
000003a0: 3e39 76bc 8858 5bbd 8eaa f1be 3c9e a8be
000003b0: afeb 633d 8816 04bd 4517 813e 3503 f13d
000003c0: f23f 86be 4fd5 153d 96f1 d23c d68c 133e
000003d0: 7ff6 a3bd 353a 283d 03e6 debe 4600 0a3d
000003e0: bc82 6e3b 7ef5 873b a6ef 963e 3acf f4ba
000003f0: 91e1 d6be fc35 7cbe 7570 2bbe 94fe 2fbe
0.25826412 0.32820693 -0.102429256 -0.4582494 -0.17930518 0.027853623 0.060270034 -0.08978618
-0.23198637 0.24500462 -0.118699186 -0.11681072 0.014460969 -0.008760933 0.28783515 0.033745706
0.20066474 -0.6494226 -0.20834938 0.03435645 -0.13571033 -0.18302216 0.05010068 -0.17832637
-0.042424787 0.04949355 -0.06484015 0.3027927 -0.016340239 -0.0047011767 -0.32091942 0.017877666
-0.4560162 -0.3193126 0.24722803 -0.31555665 0.0049824845 0.27435 -0.07393178 -0.11935168
0.015450565 0.13560739 0.16281001 -0.45758593 0.02687077 -0.2988055 0.22603153 -0.18961726
0.28665206 -0.114270195 -0.012878072 0.25048515 0.12702005 0.36933884 -0.18720923 0.11955963
-0.42342892 0.25244537 -0.060876906 -0.038046025 -0.6202515 -0.6829769 -0.12985165 -0.28996095
0.21969625 0.1878501 -0.15118216 -0.112446636 -0.022098102 0.028466703 -0.16368894 -0.08816426
-0.03648065 0.08086443 0.2759188 -0.3038172 -0.36289668 0.2931089 -0.24590223 0.035227593
0.4474148 -0.013878157 -0.57962567 -0.3420002 0.2050986 0.24037679 -0.20632966 0.07238463
0.18120132 0.16908883 0.01131558 -0.13307534 0.032890934 0.053231444 0.018314246 -0.47256252
0.05372918 -0.11598503 -0.34007818 0.06552462 0.16535404 0.18830867 0.12722558 0.07171174
-0.74573076 0.15568328 -0.030359045 -0.18991864 0.0055799936 -0.0494259 0.052869026 0.27397528
0.28524926 0.07672856 -0.20760432 -0.060891677 -0.124846645 0.09903149 0.07878857 -0.062346593
0.014147257 -0.20019886 -0.16457859 -0.07226217 -0.07568357 -0.14220083 0.11010677 0.031929605
-0.25608253 0.2846937 -0.05470976 0.034840006 -0.32205382 0.06907363 0.03468219 -0.2634501
-0.19090636 -0.4873812 -0.08346543 0.07911128 0.2769002 -0.115112096 -0.26404294 -0.061272193
-0.6362535 0.3217293 0.21013027 0.14300933 -0.058192898 -0.9319569 -0.12727207 0.05560414
-0.24073845 -0.089201756 -0.125078 0.03526188 0.1329097 0.14373444 0.0335443 0.0763567
-0.1852572 0.07553388 0.09605918 -0.28811246 -0.19417287 0.024142701 -0.16793685 -0.14569126
-0.1839133 -0.13278352 -0.049644813 -0.42826393 -0.15312167 -0.06763241 -0.18818566 0.11768102
0.101238675 -0.026341187 -0.40537152 0.33993444 -0.058209095 -0.15869157 0.022505317 0.0762518
-0.06689519 -0.3874652 0.017847802 -0.13785774 0.24041234 0.14568637 -0.08174447 -0.08190282
-0.49623123 0.07201819 -0.01547092 0.030545585 0.120375045 -0.17238441 -0.59898657 -0.04771958
0.1947485 -0.12658483 -0.17853212 -0.42368424 0.14188725 0.0714106 -0.010177395 0.020795947
0.0024398658 0.047225196 -0.18465866 0.39639908 0.06062708 0.2395812 0.15275922 0.15715662
0.07399707 -0.22279577 -0.74730164 0.031318936 -0.045159105 0.22178476 0.043099888 0.19491181
-0.2634259 0.23818114 0.11846795 -0.1607388 -0.067385785 0.30822405 0.30240956 -0.05758792
-0.015028296 -0.053551227 -0.47200435 -0.32933223 0.055644687 -0.03224805 0.25213066 0.1176819
-0.2622066 0.03658038 0.025749963 0.14409193 -0.08006 0.041071136 -0.4353486 0.033691667
0.0036393842 0.004149138 0.29479712 -0.0018677481 -0.4196897 -0.24629968 -0.16742118 -0.17186958

sequential/dense_3/MatMul f4 [100, 64]
00000000: 481a 243f 99d5 9c3e 2115 60be e3bc ebbd
00000010: 3bca 493e f1d8 c2bf bc06 1ebf 206a 543e
00000020: 15ad a7be b3a6 bdbe 4b35 a5be 64dd 39bf
00000030: 60ca 43bf f2e2 19bf c33b 09bf 58b4 62bd
00000040: 214f 863e d2cc e83b 09f9 dfbd 2e1a 223e
00000050: e717 73be f4ee 063e c4b2 40be 75ee 26bf
00000060: 3c11 58bf 078a 34be ae45 30be 5d16 b73e
00000070: a60e e23e 83d7 edbf a5bb a33d 4397 c93e
00000080: 4b54 5ebe 3807 e8bb 148f 50bd 8bd5 8e3d
00000090: 042d c13e a4e7 dfbe e57b 1cbe a8c0 863a
000000a0: b34f bbbf 2d3c 81be 52ec 923e 04b9 f43e
000000b0: b62b 0d3e 7121 c83e d486 2fbe bb33 9dbe
000000c0: 394a a6bc 3d8a 24be afcf fa3e 4ba6 cebe
000000d0: 531c 863e d773 babe 1459 cabe 099b 4dbe
000000e0: 91ac 45bf 2f00 21bf 2428 c8be ea11 093f
000000f0: 6dca 28bf eb8f 7cbe 0502 363d 1ac9 d33d
00000100: 0f81 1a3c bba9 73bc 89fc 6fbd 63c2 453e
00000110: 92bf a5bd d80f 8dbe 6e53 0cbf e5ef 42be
00000120: ff0f 83be 1ff4 e7bc 91b6 3cbd 69d3 fbbe
00000130: 753a 25be 4d5a 50be fe8b 2ebf 4f07 12be
00000140: bba7 adbe 3472 d9bf a04e 19be c6bf c43d
00000150: a5ba 533d 700f 173e 93e6 e93c afc6 04bf
00000160: c490 9bbe 4903 553d eb22 d93c 6887 dabd
00000170: ae9c 49bd ce4e cebb 70a3 22bf 0332 003d
00000180: 6dee f2be ecc9 9f3d f369 433e 83f0 debd
00000190: 3693 9e3e 069d 0dbe cd2e babe 47a7 b03e
000001a0: 47c0 11bf e418 613d 5c27 4fbe 889a 4cbd
000001b0: 97e0 40be 61f4 153e d868 063e 676c 3fbe
000001c0: 5d5f 5bbe c85d 85bc 9d8d 1ebe 98a1 b4be
000001d0: 4761 663e 4f94 c9bd 0d9e 113d dcf1 b4bd
000001e0: 6d09 f63d 7fcd 573d dea9 7c3e 1e29 b4be
000001f0: 4941 113e adb3 a9bd babe fd3d a802 f2be
00000200: 82d9 a33d 1af7 babd 8433 653e 4097 6cbe
00000210: fca1 f0bc b0ce 10bf b481 363e aebf eabb
00000220: 5030 aa3d b2e8 393e 5b96 edbe 960b 94bd
00000230: 7369 d43d 5459 12bf af90 ac3e b47c efbd
00000240: 7a9f a1be 5af3 a7be b011 06bd 71be 3abe
00000250: 1a69 ac3d a77a 163e af49 643d 9e1e 393e
00000260: 8048 7cbd 6bfe 99be 4a81 04be 73ea 19be
00000270: 65e2 14bd 0eb8 15bf 61c4 2f3e 1200 5f3e
00000280: 3579 323e 4919 17bf 9b93 7cbe dd7d f73d
00000290: 58ba f2bc ddea 823d 9c97 b0be 5115 7ebe
000002a0: 5004 8bbf dd7a c1bd 856b 193e 59b8 263d
000002b0: 2f65 48bd 5149 67be 64ab 1c3e 02a9 03be
000002c0: 9d31 28bf 82dc 71be 1d4d b1be 9fc9 403e
000002d0: 882a 29bf ac19 d0bd 4e22 063e bbea 8bbe
000002e0: ee68 c23e 21b1 0bbf b0fe 9e3e d941 9fbe
000002f0: 875e 1fbd 0204 f2be 591c bb3c 6663 1c3e
00000300: 56a2 6f3d 36d1 77be 9819 2ebe defb e1bc
00000310: 075a 1c3e f931 5fbe fdf4 e0be 3b23 c4be
00000320: 2ccc 6d3e 096c babd 7d99 72be 27ce 703c
00000330: cdcd 69be e1fa 55be 0ab2 f83c 2adc 863e
00000340: 46bf febe 3677 d83d cfe6 60bd 1b1a afbd
00000350: b409 fcb8 3aaa 55be 6b8d 80bc 92e2 64bd
00000360: bc8e e5be ad4d 34be d4f3 17bf d912 293e
00000370: 889f 4ebe 10df abbe cb95 d03d 8023 1c3b
00000380: bf3f 863e 0a4d d8bd d93e 873e 9c1e bc3c
00000390: 674b 233d 4bcd cdbd 5aa5 0abe 8bcc 93bb
000003a0: a7d6 52bf c193 833e 7b22 b83b 9664 92bd
000003b0: 00d1 99be 5744 203d 74cf 5abd 794d 03be
000003c0: 48cd 6d3e 088d e93d 6837 fabe 78ac a83d
000003d0: 9a3e b1bd 8f1a b3bd 044d 34be ad84 713d
000003e0: e986 d73b aa4b f8bd b730 a2bd 95a1 783e
000003f0: 4781 3a3e 78b4 e2bd 2580 90bd 2175 643e
0.641026 0.30631712 -0.2188306 -0.11510637 0.19706051 -1.5222455 -0.61729026 0.20743608
-0.3274924 -0.37041244 -0.32267222 -0.7260344 -0.76480675 -0.60111916 -0.53606814 -0.05534777
0.26232246 0.0071044946 -0.109361716 0.158303 -0.23739587 0.13177091 -0.18818194 -0.65207607
-0.844013 -0.17630778 -0.1721408 0.3575925 0.441518 -1.8581394 0.07994775 0.39373216
-0.21711843 -0.0070809387 -0.0509177 0.06974324 0.37729657 -0.43731415 -0.15281637 0.0010280805
-1.4633697 -0.25241223 0.28695923 0.47797406 0.13786206 0.39088014 -0.17141277 -0.3070353
-0.020299064 -0.16068359 0.48986575 -0.40361246 0.26193485 -0.36416504 -0.39521086 -0.20078672
-0.7721644 -0.62890905 -0.39093125 0.5354296 -0.6593388 -0.24664275 0.04443552 0.103410915
0.009430184 -0.01487201 -0.058590446 0.19312434 -0.0809318 -0.2755115 -0.54814804 -0.19036825
-0.25598142 -0.028314648 -0.046072546 -0.4918473 -0.16135581 -0.20346947 -0.6818236 -0.142606
-0.3391703 -1.6987977 -0.149714 0.096068904 0.05169167 0.14751983 0.02855233 -0.5186567
-0.30383885 0.052005086 0.026505908 -0.10670358 -0.049221687 -0.0062960153 -0.63530636 0.031297695
-0.4744753 0.078021854 0.19083385 -0.10885718 0.30971688 -0.13829431 -0.3636383 0.34502622
-0.56934017 0.05495538 -0.20229858 -0.04995206 -0.18835674 0.14644004 0.13125932 -0.18693696
-0.21423097 -0.01628007 -0.15483709 -0.35279536 0.22498046 -0.09842741 0.03555112 -0.088351935
0.120135166 0.05268621 0.24674174 -0.3518762 0.1418506 -0.082862236 0.12389894 -0.47267652
0.08000471 -0.09129162 0.22382933 -0.23104572 -0.029374115 -0.5656538 0.17822915 -0.0071639633
0.08309996 0.18155172 -0.46403775 -0.07228772 0.10371675 -0.57167554 0.33704135 -0.11693707
-0.31566983 -0.3280285 -0.032731712 -0.1823671 0.08418484 0.14695226 0.055734333 0.18078086
-0.06159258 -0.30076918 -0.12939945 -0.15030842 -0.03634872 -0.5848397 0.17164756 0.2177737
0.1742905 -0.5902296 -0.24665682 0.120845534 -0.029629871 0.06392453 -0.3449067 -0.24812819
-1.0860691 -0.094472624 0.14982422 0.04070315 -0.04892462 -0.22586562 0.15299755 -0.1285744
-0.65700704 -0.23619273 -0.34629145 0.18826912 -0.6608052 -0.101611465 0.13099024 -0.27327523
0.3797068 -0.5456715 0.31053686 -0.31104925 -0.038908508 -0.47268683 0.022840666 0.15272292
0.058504425 -0.24200901 -0.1700195 -0.02758592 0.15268718 -0.21796407 -0.4393691 -0.3830813
0.23222417 -0.09102637 -0.23691364 0.014697588 -0.22832413 -0.20896484 0.030358333 0.26339847
-0.49755305 0.10569613 -0.054907616 -0.08549901 -0.00012018104 -0.20865718 -0.015692433 -0.055880137
-0.4483546 -0.17607756 -0.5935643 0.16511096 -0.20178044 -0.3356862 0.10184821 0.002382487
0.2622051 -0.10561569 0.26415136 0.022963814 0.03986683 -0.10048922 -0.13539639 -0.0045104674
-0.82358783 0.25698665 0.005619345 -0.071480915 -0.30042267 0.039127674 -0.0534205 -0.12822522
0.2322284 0.11403853 -0.48870397 0.08236021 -0.086545184 -0.087453 -0.17607504 0.05896442
0.006577362 -0.12123807 -0.07919448 0.24280389 0.18213378 -0.11069578 -0.07055692 0.22310306
